models/pacman_dqn_best.pth (torch, 499974 bytes, 16 tensors)

conv_layers.0.weight f4 [32, 13, 3, 3]
0.04685753 0.05192437 0.044492193 -0.08544086 -0.080078684 -0.011520535 0.0072197244 0.032509968
0.08457107 -0.03548927 -0.037644017 -0.020285286 0.061261497 0.07036818 -0.07695392 0.059021004
-0.027196296 0.016105317 0.020223983 0.042329453 0.011498772 -0.039605573 0.047260813 -0.0017549321
0.014497019 -0.04420225 -0.029902592 -0.06776344 0.0052150786 0.026893571 0.05026438 0.06870607
0.016210578 -0.08442713 -0.04902559 0.06541557 -0.030072406 0.08242305 -0.04845117 -0.034693755
0.06264212 0.0048255026 0.06344106 0.057110272 -0.060206 0.049377657 -0.0901421 0.044587903
0.090944685 -0.073802456 0.022018485 -0.04386219 -0.07124953 -0.044630334 0.075070955 -0.027459383
0.018160388 0.032769866 0.06439916 0.024974711 -0.05522247 -0.073457 -0.029795855 -0.08245235
0.065678634 0.05530619 0.038009964 0.035407223 0.02831965 0.0604328 0.040524505 0.07576025
-0.02386377 -0.045761563 -0.052091032 0.068160556 0.004570842 -0.0019228831 -0.05689735 0.0023435056
-0.011664614 0.040437005 0.061925 -0.037720084 -0.004823737 0.067342095 -0.07551608 -0.034008797
-0.0646763 0.030254617 0.033658274 -0.006651677 0.07399865 0.006320253 -0.015560389 -0.020287357
-0.05587699 -0.002560243 -0.019748561 -0.035667554 0.009140812 0.018061273 -0.06579562 0.0011027306
0.054622523 0.024895698 0.03159298 -0.08717803 -0.04742647 -0.06448841 -0.017485224 -0.026653841
0.051507927 -0.05761349 -0.053936593 0.0051393136 -0.07563312 0.035355844 0.049115665 0.025592186
0.07817564 -0.047120243 -0.0029395595 -0.008149348 -0.03829682 0.032267593 -0.07227513 0.0070408434
0.05854415 -0.04854359 -0.067716114 -0.077955805 0.042726777 -0.008871384 0.06800368 0.026682839
0.026007026 -0.014037885 0.028544828 0.09166055 0.064121135 -0.017767735 0.058094896 -0.075196214
-0.016444303 0.051842637 0.06613242 0.032088548 -0.053767182 -0.03807834 -0.08292278 0.04433029
-0.02932433 -0.073451534 -0.057217494 -0.049627863 -0.047020406 0.01641965 -0.09234996 -0.024124466
0.056049503 0.088123895 0.06020484 -0.011954419 -0.052944846 0.09197185 -0.035046834 0.054899044
-0.026190229 -0.08413047 0.04022438 -0.012018107 -0.057930492 0.041899614 -0.047986057 -0.062928855
-0.024971798 -0.014238529 0.046774037 -0.047394894 -0.02127584 0.020117477 0.08513663 -0.04462627
0.08136941 0.078014754 0.038563453 0.045809366 -0.08449549 -0.08968743 -0.069209486 -0.03310882
0.050775982 0.020092122 -0.06042452 -0.027731545 0.086397104 -0.08759874 0.039508827 -0.059828203
-0.051729307 -0.034353994 0.025491193 -0.059663497 -0.040634904 -0.040941957 -0.03564605 -0.07327886
-0.002839014 0.06603231 0.06938156 0.08634438 0.007439293 -0.013569057 0.0753069 0.06884649
0.034163974 0.017349117 0.015823446 0.052043058 0.025417022 0.06826448 -0.061253008 -0.0009134561
-0.06622349 0.07312534 0.052391537 -0.04316505 0.060370676 0.0525802 0.040496998 -0.07037375
0.0801887 -0.092065655 0.018568322 -0.08235915 -0.07294953 -0.08423787 0.049957477 0.08796949
-0.017266296 -0.07131614 0.07010945 -0.078586906 -0.027288556 -0.030082643 0.02594661 0.060730897
-0.07340664 0.03680616 -0.013771281 -0.00941436 -0.004694067 -0.091464154 0.08142873 -0.04462446
00000000: aeed 3f3d a6ae 543d 723d 363d 9efb aebd
00000010: 4b00 a4bd a0c0 3cbc 7093 ec3b 2c29 053d
00000020: 9933 ad3d 325d 11bd 9d30 1abd 542d a6bc
00000030: 56ed 7a3d 311d 903d 049a 9dbd 02c0 713d
00000040: c4ca debc 4cef 833c c4ac a53c a661 2d3d
00000050: 5865 3c3c 7439 22bd 8e94 413d c005 e6ba
00000060: e884 6d3c 6b0d 35bd 48f6 f4bc 8fc7 8abd
00000070: 40e3 aa3b e84f dc3c 06e2 4d3d c5b5 8c3d
00000080: 0ccc 843c 22e8 acbd 0fcf 48bd 99f8 853d
00000090: 685a f6bc 6bcd a83d bc74 46bd 0a1b 0ebd
000000a0: 834a 803d 401f 9e3b 63ed 813d 76ec 693d
000000b0: 919a 76bd 3a40 4a3d 6c9c b8bd cea1 363d
000000c0: 3541 ba3d be25 97bd 1c60 b43c d7a8 33bd
000000d0: 46eb 91bd 4cce 36bd cdbe 993d 80f2 e0bc
000000e0: 18c5 943c b239 063d b5e3 833d c497 cc3c
000000f0: f530 62bd a070 96bd 7016 f4bc c7dc a8bd
00000100: 8582 863d be88 623d 56b0 1b3d 2a07 113d
00000110: 9cfe e73c 6288 773d 06fd 253d 3128 9b3d
00000120: f47d c3bc 7a70 3bbd 685d 55bd c397 8b3d
00000130: 00c7 953b 4009 fcba 320d 69bd 8095 193b
00000140: f01c 3fbc 46a1 253d 12a5 7d3d 6080 1abd
00000150: 7010 9ebb a7ea 893d 2da8 9abd cf4c 0bbd
00000160: 0275 84bd 88d8 f73c 42dd 093d 50f6 d9bb
00000170: 9b8c 973d 201a cf3b 00f1 7ebc ac31 a6bc
00000180: 45df 64bd c0c9 27bb bcc7 a1bc 2418 12bd
00000190: 58c3 153c 3cf5 933c dbbf 86bd 8089 903a
000001a0: debb 5f3d 10f2 cb3c a467 013d 658a b2bd
000001b0: 4242 42bd 8012 84bd 2c3d 8fbc 2859 dabc
000001c0: faf9 523d 1ffc 6bbd 9eec 5cbd b067 a83b
000001d0: 8ae5 9abd 4ad1 103d 822d 493d b4a6 d13c
000001e0: 8d1a a03d 2801 41bd a0a5 40bb d884 05bc
000001f0: 20dd 1cbd 062b 043d fc04 94bd e0b6 e63b
00000200: fecb 6f3d a5d5 46bd bfae 8abd 4ba7 9fbd
00000210: 4602 2f3d 4859 11bc 8345 8b3d f895 da3c
00000220: b00c d53c 28ff 65bc d8d6 e93c 87b8 bb3d
00000230: f151 833d a48d 91bc eaf4 6d3d 7900 9abd
00000240: 34b6 86bc f258 543d 6f70 873d 486f 033d
00000250: fa3a 5cbd 09f8 1bbd 6bd3 a9bd ae93 353d
00000260: 9439 f0bc c26d 96bd e45c 6abd 9646 4bbd
00000270: 7898 40bd 8082 863c fa21 bdbd aca0 c5bc
00000280: 2a94 653d 4d7a b43d 5a99 763d 78dc 43bc
00000290: b2dc 58bd bd5b bc3d 458d 0fbd d2dd 603d
000002a0: e48c d6bc 994c acbd 52c2 243d 98e7 44bc
000002b0: 8648 6dbd ee9e 2b3d 078d 44bd d8e0 80bd
000002c0: a891 ccbc b848 69bc 2296 3f3d 2621 42bd
000002d0: ac4a aebc 68cd a43c 1d5c ae3d 09ca 36bd
000002e0: 01a5 a63d 33c6 9f3d b6f4 1d3d 9aa2 3b3d
000002f0: f90b adbd 0bae b7bd b4bd 8dbd 1d9d 07bd
00000300: 7afa 4f3d 3c98 a43c b47f 77bd 442d e3bc
00000310: f7f0 b03d f866 b3bd 02d4 213d 6b0e 75bd
00000320: 1ce2 53bd c6b6 0cbd e8d2 d03c b661 74bd
00000330: c970 26bd c1b2 27bd 9801 12bd 3a13 96bd
00000340: c00e 3abb f33b 873d eb17 8e3d 53d5 b03d
00000350: 50c5 f33b c050 5ebc 813a 9a3d 63ff 8c3d
00000360: 86ef 0b3d bc1f 8e3c 2ca0 813c 1a2b 553d
00000370: 5c37 d03c 3fce 8b3d 6fe4 7abd 0075 6fba
00000380: 2ea0 87bd bdc2 953d 8298 563d d6cd 30bd
00000390: 3e47 773d 565e 573d 2ee0 253d 1d20 90bd
000003a0: f939 a43d eb8c bcbd 981c 983c eaab a8bd
000003b0: 9066 95bd e884 acbd 36a0 4c3d 5929 b43d
000003c0: 0c72 8dbc 320e 92bd 8b95 8f3d 2cf2 a0bd
000003d0: 408c dfbc e06f f6bc fc8d d43c f6c0 783d
000003e0: 3856 96bd 0ec2 163d f0a0 61bc b03e 1abc
000003f0: b0d0 99bb 8f51 bbbd 1bc4 a63d 23c8 36bd

conv_layers.0.bias f4 [32]
-0.06948074 0.017199673 -0.053714998 -0.018345512 -0.0051389113 0.011330821 0.011841483 0.085037686
-0.036500536 -0.08198904 -0.034834858 0.08961695 -0.052704778 -0.03649518 -0.06149991 0.07985184
-0.074747056 0.07755726 -0.05136997 0.06858387 -0.06050275 -0.0055529773 -0.0642284 -0.08939244
-0.06279394 0.015787244 -0.051263385 -0.056713443 -0.05505072 -0.08201728 0.079249494 -0.04318847
00000000: eb4b 8ebd 54e6 8c3c 4204 5cbd 5449 96bc
00000010: 5064 a8bb e8a4 393c c802 423c 3d28 ae3d
00000020: 9681 15bd dfe9 a7bd ffae 0ebd 1789 b73d
00000030: f7e0 57bd f87b 15bd 54e7 7bbd 5d89 a33d
00000040: fc14 99bd 57d6 9e3d 5169 52bd b375 8c3d
00000050: bbd1 77bd c0f5 b5bb 2e8a 83bd 6213 b7bd
00000060: 1c9a 80bd 4054 813c 8ef9 51bd 5b4c 68bd
00000070: dd7c 61bd adf8 a7bd 8f4d a23d 65e6 30bd

conv_layers.2.weight f4 [64, 32, 3, 3]
-0.022504028 -0.036394767 -0.029197756 -0.030422755 -0.0431348 0.04263893 -0.021617007 0.038840156
0.05649559 0.028758194 0.011869032 -0.011107359 0.011587363 -0.00977372 -0.003662534 -0.045173265
-0.04356309 0.025298897 0.058408458 0.05700561 -0.0010479875 0.022039976 0.053696353 0.046415407
-0.024145298 0.045249384 0.006069515 -0.035249278 0.0132968165 0.018071737 0.004225079 -0.0011103377
-0.015968796 -0.0122867115 0.026581358 0.017917681 -0.025275085 -0.00960248 -0.01315321 0.037782352
0.010831978 0.034426916 -0.05748356 0.055568237 0.009488728 0.0025184862 0.049903397 -0.025299825
-0.021401789 0.0076682307 -0.009548198 0.020195957 0.057666186 0.013234388 -0.015032258 -0.05699071
0.012443263 -0.008304987 0.0481038 0.015008744 -0.04700392 0.0013934746 -0.039417736 0.030047093
-0.013119064 -0.039608344 0.058473933 -0.029653933 0.0083249025 -0.029087065 -0.034468375 -0.0127609
0.057780404 0.013653357 0.054421727 -0.0038396753 0.05164511 -0.004948538 -0.023330886 -0.037750028
-0.056029543 0.02682713 -0.039048444 -0.038890246 -0.029254634 -0.028117904 0.02252743 -0.03971239
-0.04983215 0.019528355 0.014738057 0.0024573244 -0.0505654 0.025383737 -0.028905384 0.05869971
0.0037410296 0.058908407 0.05714361 0.0026647411 -0.029365191 -0.048087537 -0.009585895 0.05834462
-0.017040625 0.052141983 0.025946055 0.014610413 -0.04207012 -0.04342054 0.025391895 -0.0070933215
0.05174021 0.05592553 0.015520599 0.041721288 0.02716041 -0.048920594 0.03921425 0.019224767
-0.024531055 0.028507438 0.029144388 0.03276659 0.007639732 0.05541296 -0.032400884 -0.0030668303
0.018844683 -0.005448807 0.008520875 -0.024278954 0.058615956 0.021010403 0.056045134 -0.013164148
0.050335582 0.041964334 0.03449231 0.030806493 0.049595606 0.034825955 -0.014063295 0.011024255
-0.007893782 -0.003982261 0.034831796 -0.03219197 -0.029627204 0.028245773 -0.030749604 -0.030089527
0.021838669 0.05163626 -0.019337352 -0.020741574 0.030775715 -0.050692707 0.034435492 -0.0132947825
-0.02567843 0.02261613 -0.03755343 0.049439777 0.04037429 0.024704892 -0.007847518 -0.02176226
0.033276897 -0.003578037 -0.03861622 -0.0072613247 0.03374849 -0.031501234 -0.0024148673 0.017966855
0.006833244 0.04289973 -0.04344085 -0.002939932 0.014550138 -0.027793726 0.025005158 -0.011252873
0.036641683 0.007910255 0.013367947 -0.018885884 0.044230726 -0.015391383 -0.006486997 0.058022518
0.056230742 0.031739067 -0.049582608 -0.035723213 -0.02610441 -0.010192163 -0.047540408 -0.04822783
-0.042289518 -0.028117806 0.010653671 -0.032248028 -0.041632187 0.048724655 0.043534342 0.04858953
-0.002031371 0.013402734 -0.042186376 -0.031761423 0.036403183 0.018293817 0.0012287125 0.038223576
-0.04386659 -0.020263445 0.0129412 -0.033152133 -0.014683954 0.03692426 0.006929908 0.05755205
0.016172599 -0.056707714 0.050673548 -0.025011007 -0.03309705 -0.04209375 0.01810268 -0.035445757
-0.04816638 -0.0023974255 0.03413919 -0.028256407 0.004301276 -0.048375048 -0.015429456 -0.013633136
0.04289596 -0.0042834207 0.05357038 0.054781165 0.008750368 0.048475463 0.04162581 0.01899438
-0.01230029 -0.01019793 -0.03976042 -0.023583882 -0.020011969 0.019693378 0.017501365 0.026182104
00000000: 5e5a b8bc ae12 15bd 2230 efbc 2439 f9bc
00000010: 1eae 30bd 29a6 2e3d 2616 b1bc db16 1f3d
00000020: eb67 673d 4e96 eb3c 5476 423c a4fb 35bc
00000030: ecd8 3d3c f421 20bc 2007 70bb 9a07 39bd
00000040: 366f 32bd a23f cf3c b53d 6f3d b77e 693d
00000050: a05c 89ba 2e8d b43c b5f0 5b3d 151e 3e3d
00000060: 5ccc c5bc 6b57 393d c8e2 c63b 8c61 10bd
00000070: e4da 593c 2e0b 943c 8872 8a3b c088 91ba
00000080: fed0 82bc 344e 49bc 26c1 d93c 1ac8 923c
00000090: b20d cfbc b853 1dbc 9080 57bc abc1 1a3d
000000a0: 9c78 313c 3d03 0d3d e273 6bbd 859b 633d
000000b0: 9c76 1b3c 300d 253b 8167 4c3d 9441 cfbc
000000c0: ce52 afbc c845 fb3b 0c70 1cbc fe71 a53c
000000d0: 6133 6c3d 0cd5 583c dc49 76bc 176f 69bd
000000e0: d4de 4b3c a411 08bc 7d08 453d 3ce7 753c
000000f0: 2f87 40bd 40a5 b63a 7e74 21bd 5225 f63c
00000100: 58f1 56bc 5c3c 22bd 5d82 6f3d ceec f2bc
00000110: 2c65 083c ff47 eebc b62e 0dbd 1813 51bc
00000120: 25ab 6c3d 54b2 5f3c 51e9 5e3d 10a3 7bbb
00000130: d389 533d 5827 a2bb 6a20 bfbc c69f 1abd
00000140: 3c7f 65bd 92c4 db3c 43f1 1fbd 614b 1fbd
00000150: 6aa7 efbc 8557 e6bc 728b b83c 76a9 22bd
00000160: cc1c 4cbd eef9 9f3c e477 713c 100b 213b
00000170: aa1d 4fbd 8ef1 cf3c fcca ecbc 1b6f 703d
00000180: 102c 753b f149 713d 6b0f 6a3d f0a2 2e3b
00000190: 458f f0bc 70f7 44bd 280e 1dbc c5fa 6e3d
000001a0: c898 8bbc d592 553d d28c d43c 8460 6f3c
000001b0: b851 2cbd bcd9 31bd aa02 d03c 186f e8bb
000001c0: 8bed 533d 2b12 653d 1c4a 7e3c f1e3 2a3d
000001d0: 827f de3c f660 48bd 1f9f 203d 427d 9d3c
000001e0: 5af5 c8bc 6e88 e93c 36c0 ee3c 4336 063d
000001f0: b856 fa3b b3f8 623d cab6 04bd e0fc 48bb
00000200: 2a60 9a3c e88b b2bb 249b 0b3c a8e4 c6bc
00000210: 4917 703d 021e ac3c 958f 653d 70ae 57bc
00000220: af2c 4e3d cbe2 2b3d cf47 0d3d e65d fc3c
00000230: c324 4b3d a9a5 0e3d bc69 66bc 149f 343c
00000240: ec54 01bc a07d 82bb c9ab 0e3d badb 03bd
00000250: c0b4 f2bc ae63 e73c 98e6 fbbc 507e f6bc
00000260: 02e7 b23c 8b80 533d 5e69 9ebc 3cea a9bc
00000270: 5a1d fc3c 28a3 4fbd 3b0c 0d3d 5cd2 59bc
00000280: 925b d2bc 7645 b93c a0d1 19bd 5d81 4a3d
00000290: 835f 253d ea61 ca3c e092 00bc c446 b2bc
000002a0: 5b4d 083d 807d 6abb 0b2c 1ebd 68f0 edbb
000002b0: db3b 0a3d 7007 01bd c042 1ebb 3a2f 933c
000002c0: 68e9 df3b a1b7 2f3d 08ef 31bd e0ab 40bb
000002d0: b463 6e3c abaf e3bc 9ed7 cc3c f85d 38bc
000002e0: 9715 163d 049a 013c 3c05 5b3c 92b6 9abc
000002f0: 472b 353d 242c 7cbc e090 d4bb 05a9 6d3d
00000300: 3552 663d d300 023d 2217 4bbd 8152 12bd
00000310: ead8 d5bc 08fd 26bc bbb9 42bd 8c8a 45bd
00000320: c637 2dbd 5057 e6bc bc8c 2e3c 8216 04bd
00000330: 8386 2abd 8193 473d 1151 323d d105 473d
00000340: c020 05bb 2497 5b3c 9fcb 2cbd 4418 02bd
00000350: 811b 153d eadc 953c c00c a13a 5390 1c3d
00000360: 74ad 33bd 86ff a5bc 5407 543c 88ca 07bd
00000370: f894 70bc e53d 173d 4814 e33b b3bb 6b3d
00000380: 667c 843c 5946 68bd 118f 4f3d e2e3 ccbc
00000390: c690 07bd 7f6a 2cbd 124c 943c 922f 11bd
000003a0: 1c4a 45bd 201e 1dbb 89d5 0b3d fb79 e7bc
000003b0: b8f1 8c3b ea24 46bd d4cb 7cbc 845d 5fbc
000003c0: adb3 2f3d f05b 8cbb 9d6c 5b3d 3762 603d
000003d0: b45d 0f3c 358e 463d d37f 2a3d 1a9a 9b3c
000003e0: 2887 49bc 3815 27bc d2db 22bd fc32 c1bc
000003f0: 24f0 a3bc 0254 a13c 065f 8f3c da7b d63c

conv_layers.2.bias f4 [64]
0.013265435 0.0035775043 0.02574252 0.048146565 0.024827618 -0.02553922 -0.02628795 -0.024964254
0.053672824 0.04733697 0.017555092 0.024459098 -0.0042162314 -0.03584101 -0.0272142 -0.013516776
0.041625332 -0.0009205155 -0.0089464635 0.025527786 0.056106683 -0.041934796 -0.04651872 0.012589578
0.01721837 -0.05110196 0.045343067 -0.029579636 0.043671977 0.04164995 -0.030248392 0.0057251416
-0.032746807 -0.03594046 0.024501 -0.03905873 -0.045474757 -0.029076802 0.05824286 -0.04437262
0.02588268 -0.013610743 0.049574915 -0.056593236 -0.015729852 -0.0042498223 -0.043806285 -0.012770545
-0.042546585 -0.057638943 -0.026407022 0.058801446 0.05638474 0.05648483 -0.01166318 -0.026770864
-0.022701979 0.022092324 -0.02220305 0.046339873 -0.037079416 -0.056382917 0.019955833 0.025984962
00000000: 4457 593c 9074 6a3b fae1 d23c 5535 453d
00000010: 4a63 cb3c a037 d1bc d459 d7bc d681 ccbc
00000020: 09d8 5b3d 69e4 413d b2cf 8f3c 725e c83c
00000030: 5028 8abb 06ce 12bd 50f0 debc 7875 5dbc
00000040: 537f 2a3d c04e 71ba 3094 12bc a61f d13c
00000050: 1fd0 653d d2c3 2bbd 6a8a 3ebd 8444 4e3c
00000060: 8a0d 8d3c 4a50 51bd a7b9 393d fe50 f2bc
00000070: 63e1 323d 2399 2a3d 7acb f7bc f899 bb3b
00000080: 8421 06bd 4e36 13bd 52b6 c83c 0cfc 1fbd
00000090: bd43 3abd 7932 eebc 1190 6e3d 10c0 35bd
000000a0: ea07 d43c 98ff 5ebc 110f 4b3d 4fce 67bd
000000b0: e4db 80bc 1842 8bbb 386e 33bd 8c3b 51bc
000000c0: 5445 2ebd d016 6cbd 8a53 d8bc c9d9 703d
000000d0: aff3 663d a35c 673d ec16 3fbc 924e dbbc
000000e0: 80f9 b9bc f6fa b43c 2ce3 b5bc e1ce 3d3d
000000f0: 96e0 17bd c6f1 66bd 6a7a a33c 6ade d43c

conv_layers.4.weight f4 [64, 64, 3, 3]
0.021926958 -0.03270811 -0.009320471 -0.024072995 -0.007679511 -0.02676731 -0.036314573 0.011857938
0.013887007 0.004774552 0.0017927587 0.021889534 -0.041649394 -0.034179367 0.0024747364 0.036539193
-0.020265874 -0.028288063 -0.023352142 -0.004362285 0.033143792 0.030901019 -0.02068532 0.0073352307
0.01664102 -0.012688797 0.017701779 0.031134691 0.014704719 -0.0008479506 0.006443858 0.0066100247
0.031308 0.0375606 -0.0031012893 -0.033882603 -0.0063414685 -0.016826978 0.033402074 -0.034182645
-0.03941875 -0.03879734 -0.04088226 0.025964405 -0.022903096 0.024394717 -0.021847263 -0.0010682195
0.035997424 -0.016138539 -0.014854606 -0.030955061 0.01778489 0.004128147 -0.027526509 -0.03657019
0.013604138 0.006312806 -0.039911382 0.021539126 -0.03284171 -0.028346112 0.024860177 -0.0063028485
0.022998381 0.009352684 -0.0029166192 0.0023024268 -0.040115993 0.0067362897 0.017666299 -0.026401456
-0.011375856 -0.03481549 -0.026590452 -0.00469077 0.011017632 -0.016912296 -0.027927827 0.02118871
0.03410201 -0.0038192682 -0.022108844 -0.0072201528 0.03154141 -0.0085932575 -0.034388058 -0.006127801
0.029433329 -0.03989106 -0.037932463 0.031882647 -0.024619266 0.0011041574 -0.003953278 -0.035261955
-0.024356857 0.008870393 -0.035961397 0.028301869 0.009073567 0.0016559772 -0.0058011264 -0.006711185
-0.0041326582 -0.010361508 -0.02582874 0.032527912 -0.0049745627 -0.015329018 -0.0019052029 0.001765579
-0.0050641596 -0.018333983 -0.03752958 0.018387247 0.016407281 0.022708904 -0.012691539 0.018590108
0.00291799 0.01335305 0.0075194836 -0.020722788 0.022608 -0.016719386 -0.009391103 0.022981975
-0.02848525 -0.038306497 0.0340402 -0.0008428283 -0.028775707 -0.004223611 0.022253547 0.01769105
0.019791175 0.029112872 0.0071864873 0.03589875 -0.016562056 -0.02480587 -0.020850684 0.033797923
0.00095272064 -0.027742347 0.009560391 0.032451514 -0.032300808 0.019694194 0.006374087 -0.008523006
0.00057533756 -0.014438411 -0.036055677 -0.016037941 -0.039741382 0.03634133 -0.033549234 -0.037591275
0.027392317 0.036032338 -0.034261324 -0.0048011243 0.0134505145 -0.010270972 0.0035820864 0.040614795
-0.008607451 -0.025505807 0.037882525 -0.024630224 -0.03852033 -0.0097252615 0.01924811 -0.025107339
0.01111111 0.01900084 0.017551485 0.011326417 0.0400648 -0.037151955 0.036497544 -0.014606342
0.018469248 0.021176782 -0.0015410595 -0.03845419 -0.020503014 -0.01079013 0.0018741675 0.0032409392
-0.021245014 -0.040185876 0.0007468797 -0.013619384 -0.024753204 0.032804456 0.018008817 0.031078715
-0.033655174 -0.006773293 0.004122939 0.0099581815 -0.03179393 0.019241631 0.040477533 -0.022374686
-0.030880049 -0.022640005 -0.04013663 0.014292251 -0.016602691 0.025116567 0.0032726526 -0.014037028
0.00071758404 0.015133243 0.002872631 0.012601566 0.03583813 0.026942704 0.031915147 -0.029355144
0.018923376 -0.007043984 -0.017908987 0.003545981 -0.007524565 0.03130104 0.0009476803 -0.0016621985
0.016362548 -0.01607947 -0.011784619 -0.0032110624 0.007836089 -0.02690494 0.032631923 -0.0004298538
0.003026355 -0.030602297 -0.024500787 0.0057287402 -0.02200156 -0.0037425607 -0.00311834 -0.026963338
0.03208668 0.012425337 -0.024475437 0.041274708 -0.031107685 -0.00978497 -0.015333068 0.0046539716
00000000: 2aa0 b33c f0f8 05bd e4b4 18bc bb34 c5bc
00000010: 68a4 fbbb 1e47 dbbc 97be 14bd cc47 423c
00000020: 5486 633c d873 9c3b 00fb ea3a ae51 b33c
00000030: 8e98 2abd aaff 0bbd 302f 223b 1faa 153d
00000040: 9e04 a6bc 5ebc e7bc fe4c bfbc 80f1 8ebb
00000050: c9c1 073d 2224 fd3c 4374 a9bc 605c f03b
00000060: c052 883c ace4 4fbc 5203 913c 2e0e ff3c
00000070: 10ec 703c 0049 5eba 0027 d33b e898 d83b
00000080: d13c 003d 25d9 193d 003f 4bbb 7cc8 0abd
00000090: 18cc cfbb bbd8 89bc 9dd0 083d 1a03 0cbd
000000a0: 8e75 21bd f6e9 1ebd 2874 27bd 4eb3 d43c
000000b0: 469f bbbc 6ed7 c73c 08f9 b2bc 8003 8cba
000000c0: 0972 133d f834 84bc bc60 73bc 7895 fdbc
000000d0: 9eb1 913c 6845 873b 467f e1bc a0ca 15bd
000000e0: e4e3 5e3c a8db ce3b 1e7a 23bd d272 b03c
000000f0: 0785 06bd 1b36 e8bc 92a7 cb3c 2088 cebb
00000100: 1a67 bc3c 003c 193c c024 3fbb 50e4 163b
00000110: ab50 24bd 18bc dc3b eab8 903c de47 d8bc
00000120: cc61 3abc b09a 0ebd 38d4 d9bc 08b5 99bb
00000130: 4c83 343c a88b 8abc e6c8 e4bc f293 ad3c
00000140: 8dae 0b3d b04c 7abb 9b1d b5bc 0897 ecbb
00000150: 9131 013d bcca 0cbc 7eda 0cbd b8cb c8bb
00000160: 2a1e f13c cf64 23bd 125f 1bbd 6197 023d
00000170: 58ae c9bc 60b9 903a 808a 81bb d76e 10bd
00000180: 0888 c7bc 2055 113c 424c 13bd 52d9 e73c
00000190: 4ca9 143c 600d d93a 6017 bebb 80e9 dbbb
000001a0: 406b 87bb 50c3 29bc cb96 d3bc fd3b 053d
000001b0: a801 a3bb 9026 7bbc 00b8 f9ba 006b e73a
000001c0: 40f1 a5bb 2631 96bc 9eb8 19bd daa0 963c
000001d0: 9068 863c 0608 ba3c 2cf0 4fbc 484a 983c
000001e0: c03b 3f3b c0c6 5a3c 0066 f63b d6c2 a9bc
000001f0: 6a34 b93c 18f7 88bc 24dd 19bc b244 bc3c
00000200: e659 e9bc 46e7 1cbd bd6d 0b3d 40f1 5cba
00000210: 08bb ebbc 3866 8abb 124d b63c d2ec 903c
00000220: 1a21 a23c 1e7e ee3c a07c eb3b 910a 133d
00000230: 26ad 87bc ae35 cbbc 0ecf aabc b16f 0a3d
00000240: 00c0 793a eb43 e3bc 30a3 1c3c e1eb 043d
00000250: da4d 04bd b855 a13c b8dd d03b 14a4 0bbc
00000260: 40d2 163a 168f 6cbc 1eaf 13bd 0062 83bc
00000270: dcc7 22bd a5da 143d ec6a 09bd 4ff9 19bd
00000280: da65 e03c a596 133d 9a55 0cbd c052 9dbb
00000290: 8c5f 5c3c 9447 28bc 70c1 6a3b b35b 263d
000002a0: 4406 0dbc 8ef1 d0bc b52a 1b3d 53c5 c9bc
000002b0: 7ec7 1dbd b456 1fbc 36ae 9d3c e8ad cdbc
000002c0: 600b 363c a6a7 9b3c 22c8 8f3c 7092 393c
000002d0: fd1a 243d a62c 18bd 737e 153d 704f 6fbc
000002e0: d24c 973c ee7a ad3c 60fd c9ba 2482 1dbd
000002f0: f0f5 a7bc 16c9 30bc a0a6 f53a f065 543b
00000300: 060a aebc f299 24bd 40ca 433a d623 5fbc
00000310: 3bc7 cabc f75d 063d 3a87 933c ca98 fe3c
00000320: 02da 09bd 80f2 ddbb b819 873b a427 233c
00000330: 5a3a 02bd a0a0 9d3c c5cb 253d 1e4b b7bc
00000340: 28f8 fcbc 8877 b9bc 4f66 24bd 0c2a 6a3c
00000350: 5e02 88bc 42c1 cd3c 007a 563b 90fb 65bc
00000360: 401c 3c3a 6cf1 773c c042 3c3b cc76 4e3c
00000370: 01cb 123d f2b6 dc3c 75b9 023d 337a f0bc
00000380: 3205 9b3c 38d1 e6bb deb5 92bc b063 683b
00000390: a090 f6bb 8535 003d c06d 783a 20de d9ba
000003a0: c00a 863c 18b9 83bc 4614 41bc b070 52bb
000003b0: f062 003c c067 dcbc 0da9 053d 005e e1b9
000003c0: d055 463b abb1 fabc e0b5 c8bc 28b8 bb3b
000003d0: 9e3c b4bc c045 75bb 105d 4cbb 38e2 dcbc
000003e0: 536d 033d a493 4b3c b680 c8bc ab0f 293d
000003f0: 8bd5 febc 2451 20bc 8c37 7bbc 5880 983b

conv_layers.4.bias f4 [64]
0.017729059 -0.01573146 -0.026150685 0.0135678835 0.00048323348 -0.030070841 -0.03155456 -0.012128666
0.02235419 0.023837078 -0.020642823 0.023402635 -0.0060729533 0.028049652 -0.029022362 -0.03245651
0.0014626123 0.032174874 0.004894819 -0.016989648 0.020492818 0.037863065 0.020714264 0.02795915
0.04007415 0.010018989 0.007829919 0.022638995 -0.019089296 -0.0134502165 -0.0147205945 0.040868137
0.024496961 0.0127914995 -0.0027411282 -0.037850805 -0.0067414083 0.0045042485 0.0053437836 -0.024162244
0.0045578443 -0.0021570474 0.017567609 -0.012348732 0.026968475 0.008302536 -0.014619067 0.0072143115
0.011714134 0.032751624 0.027699206 -0.03249919 0.004745964 0.030747209 0.040943544 -0.0016086064
-0.016529 -0.026968967 -0.035982233 -0.022031521 0.017283153 0.040262375 0.030034889 0.020868715
00000000: 883c 913c 43df 80bc f639 d6bc d44b 5e3c
00000010: 805a fd39 2057 f6bc 5b3f 01bd 50b7 46bc
00000020: 2220 b73c fa45 c33c 231b a9bc e2b6 bf3c
00000030: a0ff c6bb 62c8 e53c 4ec0 edbc 1ef1 04bd
00000040: 20b5 bf3a cdc9 033d b864 a03b e02d 8bbc
00000050: 8ee0 a73c 4d16 1b3d f6b0 a93c 960a e53c
00000060: cb24 243d b026 243c 1049 003c 6a75 b93c
00000070: 2861 9cbc 4c5e 5cbc a62e 71bc 5965 273d
00000080: daad c83c 7093 513c 80a4 33bb 7209 1bbd
00000090: 08e7 dcbb 6098 933b e81a af3b e6ef c5bc
000000a0: f859 953b 405d 0dbb f2e9 8f3c 5652 4abc
000000b0: feec dc3c 5c07 083c d084 6fbc 0866 ec3b
000000c0: a4ec 3f3c 9126 063d 72e9 e23c df1d 05bd
000000d0: 0884 9b3b 92e1 fb3c 6bb4 273d e0d7 d2ba
000000e0: d367 87bc 06ee dcbc 1b62 13bd 737b b4bc
000000f0: 6695 8d3c 29ea 243d ba0b f63c def4 aa3c

feature_fc.0.weight f4 [64, 37]
0.073297486 -0.09303896 -0.057087056 0.13104655 -0.11535692 -0.074686386 0.039393142 -0.01737392
-0.10552521 0.028695598 0.032293767 0.06777468 0.11238973 -0.09551277 0.07290502 -0.05321467
-0.0791989 0.08046858 -0.07043392 -0.083316475 -0.015253931 0.047634646 0.117688164 0.12850578
-0.009827286 -0.060925297 0.0073033273 0.008063331 0.02014342 -0.05048696 -0.053165495 -0.0052298903
0.13648207 -0.07524328 -0.06611262 0.015533969 0.041415304 -0.05932927 0.13533626 -0.038257167
-0.12635957 -0.15002577 0.113050535 -0.10175334 -0.08460633 0.076643035 -0.11695595 -0.084801346
-0.16208597 0.14048298 -0.15559465 0.018243551 -0.14168207 -0.03658776 -0.048318177 0.09317137
0.0592207 0.06906451 0.109542444 -0.09387274 0.0063623786 0.1487424 -0.14384747 -0.12011868
0.14644761 -0.027677774 -0.085731894 -0.1643056 -0.074507244 0.14517741 -0.08810779 0.10680859
-0.054614134 0.07221058 -0.15777364 -0.010034546 0.09533076 0.12805544 0.009723425 0.0037570894
0.03037782 0.14362217 -0.1552496 -0.02724506 -0.15101214 -0.060962006 -0.1152301 -0.12942117
-0.088002816 0.13612191 -0.066298515 0.0134359 -0.12634388 -0.11301139 -0.03987509 0.05308865
-0.095507436 0.13127767 -0.122687235 -0.14603692 0.1113991 0.10445608 -0.15627149 0.069214866
0.14618288 0.14253168 0.08995135 -0.022256061 -0.10140911 -0.09326254 0.006190151 -0.10055746
-0.14428595 -0.062143408 0.03168598 0.071721494 0.10921459 0.10739319 -0.10692422 0.06295034
-0.013411447 -0.0004785061 0.017063677 -0.102704346 0.0127542615 -0.012367308 0.13027738 0.089197084
-0.0096402615 0.10373826 0.11400013 0.105176166 0.014923438 0.14382525 -0.04541602 0.1357239
-0.008259788 0.08794986 -0.029716566 -0.11153745 -0.0687289 0.038338125 0.038983762 0.14973824
-0.13563994 -0.11121583 0.14393164 -0.009376347 -0.13177574 -0.0016496927 -0.0005950928 0.12902029
-0.061625257 -0.14835785 -0.10247722 0.07443918 -0.07087869 -0.043936223 0.14041199 -0.010280907
-0.10570322 0.049850494 0.020739809 0.088357076 -0.07176493 -0.07241348 -0.080731235 0.1070454
-0.02902633 -0.0933111 -0.15746829 -0.06748581 -0.11038396 -0.07035763 -0.096257955 0.0787532
-0.11933372 -0.08437008 0.0211851 0.13846548 0.03670396 0.097074375 -0.055661567 0.11161922
-0.0019639432 0.1416478 -0.14441334 -0.029964358 -0.022133455 0.123778924 -0.08027541 0.019737601
-0.11682976 -0.08350142 -0.07755965 0.14606266 -0.1237123 0.10695134 0.1518325 -0.13984804
0.10996963 -0.12775333 -0.07282951 -0.11967808 -0.068113625 -0.05171261 0.14620431 -0.09274143
-0.06670917 -0.036425486 0.049585357 -0.14931874 0.11633985 0.028611347 -0.11665453 -0.016078457
0.124752685 0.010172591 -0.09851736 0.09691544 -0.08524414 -0.010921359 -0.14664724 0.07268584
0.0030545294 -0.15458155 0.11558224 0.052285 -0.009621739 0.08253315 0.06442648 -0.092093915
-0.06898199 -0.048306577 0.13292949 -0.048436113 0.02497986 0.016442686 -0.13980213 0.1173255
0.13861127 -0.044823855 -0.13256109 0.037251815 0.14192794 0.025048658 -0.08208349 0.15272014
-0.086794786 -0.15181357 -0.118039444 -0.0061259866 0.12974767 0.15696152 0.122681126 -0.12996724
00000000: fe1c 963d 368b bebd 1ed4 69bd 1131 063e
00000010: 4040 ecbd 2df5 98bd b45a 213d c053 8ebc
00000020: 9a1d d8bd 0813 eb3c 7846 043d 74cd 8a3d
00000030: 962c e63d 339c c3bd 3a4f 953d a0f7 59bd
00000040: 0833 a2bd b6cc a43d a93f 90bd d4a1 aabd
00000050: a0eb 79bc 8c1c 433d 7e06 f13d 0597 033e
00000060: a002 21bc ce8c 79bd c050 ef3b 101c 043c
00000070: d003 a53c 6acb 4ebd 10c4 59bd 805f abbb
00000080: f5c1 0b3e 2619 9abd 0e66 87bd 3082 7e3c
00000090: 18a3 293d 4003 73bd 9795 0a3e 8cb3 1cbd
000000a0: 6764 01be 5ba0 19be 0a87 e73d 0e64 d0bd
000000b0: 1546 adbd 06f7 9c3d 9a86 efbd 54ac adbd
000000c0: ddf9 25be c5da 0f3e 3454 1fbe 8073 953c
000000d0: 1b15 11be 0cdd 15bd 48e9 45bd a2d0 be3d
000000e0: 6891 723d b271 8d3d ca57 e03d 5a40 c0bd
000000f0: 807b d03b ed4f 183e c04c 13be c800 f6bd
00000100: 5df6 153e 80bc e2bc 3494 afbd ba3f 28be
00000110: 4197 98bd 63a9 143e db71 b4bd 76be da3d
00000120: 12b3 5fbd 24e3 933d 6a8f 21be f067 24bc
00000130: c63c c33d f720 033e 004f 1f3c 8039 763b
00000140: e8da f83c b111 133e c0f9 1ebe 0831 dfbc
00000150: eda2 1abe 4cb3 79bd c2fd ebbd fc86 04be
00000160: d23a b4bd 8b63 0b3e 84c7 87bd 4022 5c3c
00000170: 4a60 01be 8472 e7bd 1054 23bd 7c73 593d
00000180: 6799 c3bd a76d 063e 7243 fbbd b48a 15be
00000190: 3625 e43d 12ed d53d a205 20be 86c0 8d3d
000001a0: f7b0 153e d3f3 113e 6a38 b83d 5852 b6bc
000001b0: 94af cfbd 6e00 bfbd c0d6 ca3b 12f1 cdbd
000001c0: b2bf 13be 168a 7ebd 28c9 013d b8e2 923d
000001d0: e6ab df3d f6f0 db3d 16fb dabd 1cec 803d
000001e0: b0bb 5bbc 00e0 fab9 20c9 8b3c a856 d2bd
000001f0: 40f7 503c 40a0 4abc 6f67 053e f6ac b63d
00000200: 30f2 1dbc ba74 d43d e678 e93d 9a66 d73d
00000210: 7081 743c ed46 133e 2606 3abd 35fb 0a3e
00000220: 1054 07bc 0e1f b43d 2870 f3bc bf6d e4bd
00000230: bdc1 8cbd 7008 1d3d 70ad 1f3d fb54 193e
00000240: 32e5 0abe 20c5 e3bd d162 133e 409f 19bc
00000250: 38f0 06be 803a d8ba 0000 1cba e51d 043e
00000260: c46a 7cbd 1feb 17be 94df d1bd 9273 983d
00000270: d928 91bd 78f6 33bd 29c8 0f3e 4071 28bc
00000280: ee7a d8bd 0830 4c3d 88e6 a93c 8ef4 b43d
00000290: 7ef9 92bd 854d 94bd 6b56 a5bd 9e3a db3d
000002a0: a0c8 edbc e419 bfbd 5e3f 21be 0036 8abd
000002b0: fc10 e2bd a917 90bd e422 c5bd 5c49 a13d
000002c0: 3d65 f4bd 38ca acbd 608c ad3c e5c9 0d3e
000002d0: e456 163d eece c63d 62fd 63bd 9e98 e43d
000002e0: 80b5 00bb 1f0c 113e 17e1 13be d077 f5bc
000002f0: 3851 b5bc ce7f fd3d 6f67 a4bd c0b0 a13c
00000300: 7144 efbd cb02 abbd 98d7 9ebd 7391 153e
00000310: e05c fdbd 4e09 db3d fb79 1b3e 5334 0fbe
00000320: c237 e13d c5d1 02be a327 95bd c819 f5bd
00000330: 287f 8bbd 9ad0 53bd 95b6 153e 38ef bdbd
00000340: d19e 88bd e432 15bd 041a 4b3d 03e7 18be
00000350: 9643 ee3d 5862 ea3c 92e8 eebd f8b6 83bc
00000360: 567e ff3d f0aa 263c 78c3 c9bd 9a7b c63d
00000370: 7b94 aebd 80ef 32bc b22a 16be 50dc 943d
00000380: 802e 483b a04a 1ebe 62b6 ec3d cc28 563d
00000390: 80a4 1dbc 2407 a93d 08f2 833d bc9b bcbd
000003a0: 6e46 8dbd 1edd 45bd ab1e 083e f264 46bd
000003b0: 90a2 cc3c d0b2 863c 4a28 0fbe 5a48 f03d
000003c0: 1df0 0d3e 3899 37bd 18be 07be 5c95 183d
000003d0: 8f55 113e d832 cd3c 641b a8bd ab62 1c3e
000003e0: 77c1 b1bd 0475 1bbe aabe f1bd 80bc c8bb
000003f0: 93dc 043e 85ba 203e 3e40 fb3d 2216 05be

feature_fc.0.bias f4 [64]
-0.005388811 0.14707385 0.11022706 -0.14412409 -0.089271195 -0.061879367 -0.053560533 -0.037417814
0.07631889 -0.09481636 -0.15619102 0.14752083 -0.09165189 0.06662755 -0.13981463 -0.0029765815
0.09726678 -0.112717144 0.013122544 -0.031068847 -0.091632344 -0.121412 0.056293353 -0.026762322
0.008144259 0.0037371963 -0.04497368 0.05923812 0.08995895 -0.02275981 -0.12843402 0.05234684
-0.05312995 -0.005632162 -0.12786362 -0.048648246 0.08695011 -0.0518544 -0.11978128 0.15640895
0.10421406 -0.08765938 0.024464577 0.04222183 0.006403595 -0.05237045 -0.03272745 -0.098253004
-0.02198109 -0.0061922073 0.12110345 0.053047836 0.0076024383 -0.078943126 -0.15743352 -0.01803574
-0.10380569 -0.15120186 -0.14674811 0.13280801 -0.15513988 -0.056419335 0.015911505 0.12634052
00000000: a094 b0bb 879a 163e babe e13d 4495 13be
00000010: d1d3 b6bd 3875 7dbd 4a62 5bbd 6c43 19bd
00000020: 144d 9c3d 142f c2bd 8af0 1fbe b30f 173e
00000030: fcb3 bbbd 0674 883d 912b 0fbe c012 43bb
00000040: ce33 c73d 3fd8 e6bd f0ff 563c 1884 febc
00000050: bda9 bbbd dba6 f8bd dc93 663d a83c dbbc
00000060: 806f 053c c0eb 743b 5236 38bd aca3 723d
00000070: 663c b83d c872 babc 3584 03be a469 563d
00000080: ca9e 59bd 008e b8bb aeee 02be 6243 47bd
00000090: e612 b23d 4865 54bd e34f f5bd ab29 203e
000000a0: 2e6e d53d c386 b3bd f069 c83c ccf0 2c3d
000000b0: 40d5 d13b 6682 56bd 380d 06bd df38 c9bd
000000c0: b011 b4bc 00e8 cabb 1605 f83d b048 593d
000000d0: e01d f93b efac a1bd 4136 21be b0bf 93bc
000000e0: 1498 d4bd a9d4 1abe 2345 16be d3fe 073e
000000f0: fddc 1ebe f617 67bd d858 823c 695f 013e

conv_layers.0.weight f4 [32, 13, 3, 3]
0.04685753 0.05192437 0.044492193 -0.08544086 -0.080078684 -0.011520535 0.0072197244 0.032509968
0.08457107 -0.03548927 -0.037644017 -0.020285286 0.061261497 0.07036818 -0.07695392 0.059021004
-0.027196296 0.016105317 0.020223983 0.042329453 0.011498772 -0.039605573 0.047260813 -0.0017549321
0.014497019 -0.04420225 -0.029902592 -0.06776344 0.0052150786 0.026893571 0.05026438 0.06870607
0.016210578 -0.08442713 -0.04902559 0.06541557 -0.030072406 0.08242305 -0.04845117 -0.034693755
0.06264212 0.0048255026 0.06344106 0.057110272 -0.060206 0.049377657 -0.0901421 0.044587903
0.090944685 -0.073802456 0.022018485 -0.04386219 -0.07124953 -0.044630334 0.075070955 -0.027459383
0.018160388 0.032769866 0.06439916 0.024974711 -0.05522247 -0.073457 -0.029795855 -0.08245235
0.065678634 0.05530619 0.038009964 0.035407223 0.02831965 0.0604328 0.040524505 0.07576025
-0.02386377 -0.045761563 -0.052091032 0.068160556 0.004570842 -0.0019228831 -0.05689735 0.0023435056
-0.011664614 0.040437005 0.061925 -0.037720084 -0.004823737 0.067342095 -0.07551608 -0.034008797
-0.0646763 0.030254617 0.033658274 -0.006651677 0.07399865 0.006320253 -0.015560389 -0.020287357
-0.05587699 -0.002560243 -0.019748561 -0.035667554 0.009140812 0.018061273 -0.06579562 0.0011027306
0.054622523 0.024895698 0.03159298 -0.08717803 -0.04742647 -0.06448841 -0.017485224 -0.026653841
0.051507927 -0.05761349 -0.053936593 0.0051393136 -0.07563312 0.035355844 0.049115665 0.025592186
0.07817564 -0.047120243 -0.0029395595 -0.008149348 -0.03829682 0.032267593 -0.07227513 0.0070408434
0.05854415 -0.04854359 -0.067716114 -0.077955805 0.042726777 -0.008871384 0.06800368 0.026682839
0.026007026 -0.014037885 0.028544828 0.09166055 0.064121135 -0.017767735 0.058094896 -0.075196214
-0.016444303 0.051842637 0.06613242 0.032088548 -0.053767182 -0.03807834 -0.08292278 0.04433029
-0.02932433 -0.073451534 -0.057217494 -0.049627863 -0.047020406 0.01641965 -0.09234996 -0.024124466
0.056049503 0.088123895 0.06020484 -0.011954419 -0.052944846 0.09197185 -0.035046834 0.054899044
-0.026190229 -0.08413047 0.04022438 -0.012018107 -0.057930492 0.041899614 -0.047986057 -0.062928855
-0.024971798 -0.014238529 0.046774037 -0.047394894 -0.02127584 0.020117477 0.08513663 -0.04462627
0.08136941 0.078014754 0.038563453 0.045809366 -0.08449549 -0.08968743 -0.069209486 -0.03310882
0.050775982 0.020092122 -0.06042452 -0.027731545 0.086397104 -0.08759874 0.039508827 -0.059828203
-0.051729307 -0.034353994 0.025491193 -0.059663497 -0.040634904 -0.040941957 -0.03564605 -0.07327886
-0.002839014 0.06603231 0.06938156 0.08634438 0.007439293 -0.013569057 0.0753069 0.06884649
0.034163974 0.017349117 0.015823446 0.052043058 0.025417022 0.06826448 -0.061253008 -0.0009134561
-0.06622349 0.07312534 0.052391537 -0.04316505 0.060370676 0.0525802 0.040496998 -0.07037375
0.0801887 -0.092065655 0.018568322 -0.08235915 -0.07294953 -0.08423787 0.049957477 0.08796949
-0.017266296 -0.07131614 0.07010945 -0.078586906 -0.027288556 -0.030082643 0.02594661 0.060730897
-0.07340664 0.03680616 -0.013771281 -0.00941436 -0.004694067 -0.091464154 0.08142873 -0.04462446
00000000: aeed 3f3d a6ae 543d 723d 363d 9efb aebd
00000010: 4b00 a4bd a0c0 3cbc 7093 ec3b 2c29 053d
00000020: 9933 ad3d 325d 11bd 9d30 1abd 542d a6bc
00000030: 56ed 7a3d 311d 903d 049a 9dbd 02c0 713d
00000040: c4ca debc 4cef 833c c4ac a53c a661 2d3d
00000050: 5865 3c3c 7439 22bd 8e94 413d c005 e6ba
00000060: e884 6d3c 6b0d 35bd 48f6 f4bc 8fc7 8abd
00000070: 40e3 aa3b e84f dc3c 06e2 4d3d c5b5 8c3d
00000080: 0ccc 843c 22e8 acbd 0fcf 48bd 99f8 853d
00000090: 685a f6bc 6bcd a83d bc74 46bd 0a1b 0ebd
000000a0: 834a 803d 401f 9e3b 63ed 813d 76ec 693d
000000b0: 919a 76bd 3a40 4a3d 6c9c b8bd cea1 363d
000000c0: 3541 ba3d be25 97bd 1c60 b43c d7a8 33bd
000000d0: 46eb 91bd 4cce 36bd cdbe 993d 80f2 e0bc
000000e0: 18c5 943c b239 063d b5e3 833d c497 cc3c
000000f0: f530 62bd a070 96bd 7016 f4bc c7dc a8bd
00000100: 8582 863d be88 623d 56b0 1b3d 2a07 113d
00000110: 9cfe e73c 6288 773d 06fd 253d 3128 9b3d
00000120: f47d c3bc 7a70 3bbd 685d 55bd c397 8b3d
00000130: 00c7 953b 4009 fcba 320d 69bd 8095 193b
00000140: f01c 3fbc 46a1 253d 12a5 7d3d 6080 1abd
00000150: 7010 9ebb a7ea 893d 2da8 9abd cf4c 0bbd
00000160: 0275 84bd 88d8 f73c 42dd 093d 50f6 d9bb
00000170: 9b8c 973d 201a cf3b 00f1 7ebc ac31 a6bc
00000180: 45df 64bd c0c9 27bb bcc7 a1bc 2418 12bd
00000190: 58c3 153c 3cf5 933c dbbf 86bd 8089 903a
000001a0: debb 5f3d 10f2 cb3c a467 013d 658a b2bd
000001b0: 4242 42bd 8012 84bd 2c3d 8fbc 2859 dabc
000001c0: faf9 523d 1ffc 6bbd 9eec 5cbd b067 a83b
000001d0: 8ae5 9abd 4ad1 103d 822d 493d b4a6 d13c
000001e0: 8d1a a03d 2801 41bd a0a5 40bb d884 05bc
000001f0: 20dd 1cbd 062b 043d fc04 94bd e0b6 e63b
00000200: fecb 6f3d a5d5 46bd bfae 8abd 4ba7 9fbd
00000210: 4602 2f3d 4859 11bc 8345 8b3d f895 da3c
00000220: b00c d53c 28ff 65bc d8d6 e93c 87b8 bb3d
00000230: f151 833d a48d 91bc eaf4 6d3d 7900 9abd
00000240: 34b6 86bc f258 543d 6f70 873d 486f 033d
00000250: fa3a 5cbd 09f8 1bbd 6bd3 a9bd ae93 353d
00000260: 9439 f0bc c26d 96bd e45c 6abd 9646 4bbd
00000270: 7898 40bd 8082 863c fa21 bdbd aca0 c5bc
00000280: 2a94 653d 4d7a b43d 5a99 763d 78dc 43bc
00000290: b2dc 58bd bd5b bc3d 458d 0fbd d2dd 603d
000002a0: e48c d6bc 994c acbd 52c2 243d 98e7 44bc
000002b0: 8648 6dbd ee9e 2b3d 078d 44bd d8e0 80bd
000002c0: a891 ccbc b848 69bc 2296 3f3d 2621 42bd
000002d0: ac4a aebc 68cd a43c 1d5c ae3d 09ca 36bd
000002e0: 01a5 a63d 33c6 9f3d b6f4 1d3d 9aa2 3b3d
000002f0: f90b adbd 0bae b7bd b4bd 8dbd 1d9d 07bd
00000300: 7afa 4f3d 3c98 a43c b47f 77bd 442d e3bc
00000310: f7f0 b03d f866 b3bd 02d4 213d 6b0e 75bd
00000320: 1ce2 53bd c6b6 0cbd e8d2 d03c b661 74bd
00000330: c970 26bd c1b2 27bd 9801 12bd 3a13 96bd
00000340: c00e 3abb f33b 873d eb17 8e3d 53d5 b03d
00000350: 50c5 f33b c050 5ebc 813a 9a3d 63ff 8c3d
00000360: 86ef 0b3d bc1f 8e3c 2ca0 813c 1a2b 553d
00000370: 5c37 d03c 3fce 8b3d 6fe4 7abd 0075 6fba
00000380: 2ea0 87bd bdc2 953d 8298 563d d6cd 30bd
00000390: 3e47 773d 565e 573d 2ee0 253d 1d20 90bd
000003a0: f939 a43d eb8c bcbd 981c 983c eaab a8bd
000003b0: 9066 95bd e884 acbd 36a0 4c3d 5929 b43d
000003c0: 0c72 8dbc 320e 92bd 8b95 8f3d 2cf2 a0bd
000003d0: 408c dfbc e06f f6bc fc8d d43c f6c0 783d
000003e0: 3856 96bd 0ec2 163d f0a0 61bc b03e 1abc
000003f0: b0d0 99bb 8f51 bbbd 1bc4 a63d 23c8 36bd

conv_layers.0.bias f4 [32]
-0.06948074 0.017199673 -0.053714998 -0.018345512 -0.0051389113 0.011330821 0.011841483 0.085037686
-0.036500536 -0.08198904 -0.034834858 0.08961695 -0.052704778 -0.03649518 -0.06149991 0.07985184
-0.074747056 0.07755726 -0.05136997 0.06858387 -0.06050275 -0.0055529773 -0.0642284 -0.08939244
-0.06279394 0.015787244 -0.051263385 -0.056713443 -0.05505072 -0.08201728 0.079249494 -0.04318847
00000000: eb4b 8ebd 54e6 8c3c 4204 5cbd 5449 96bc
00000010: 5064 a8bb e8a4 393c c802 423c 3d28 ae3d
00000020: 9681 15bd dfe9 a7bd ffae 0ebd 1789 b73d
00000030: f7e0 57bd f87b 15bd 54e7 7bbd 5d89 a33d
00000040: fc14 99bd 57d6 9e3d 5169 52bd b375 8c3d
00000050: bbd1 77bd c0f5 b5bb 2e8a 83bd 6213 b7bd
00000060: 1c9a 80bd 4054 813c 8ef9 51bd 5b4c 68bd
00000070: dd7c 61bd adf8 a7bd 8f4d a23d 65e6 30bd

conv_layers.2.weight f4 [64, 32, 3, 3]
-0.022504028 -0.036394767 -0.029197756 -0.030422755 -0.0431348 0.04263893 -0.021617007 0.038840156
0.05649559 0.028758194 0.011869032 -0.011107359 0.011587363 -0.00977372 -0.003662534 -0.045173265
-0.04356309 0.025298897 0.058408458 0.05700561 -0.0010479875 0.022039976 0.053696353 0.046415407
-0.024145298 0.045249384 0.006069515 -0.035249278 0.0132968165 0.018071737 0.004225079 -0.0011103377
-0.015968796 -0.0122867115 0.026581358 0.017917681 -0.025275085 -0.00960248 -0.01315321 0.037782352
0.010831978 0.034426916 -0.05748356 0.055568237 0.009488728 0.0025184862 0.049903397 -0.025299825
-0.021401789 0.0076682307 -0.009548198 0.020195957 0.057666186 0.013234388 -0.015032258 -0.05699071
0.012443263 -0.008304987 0.0481038 0.015008744 -0.04700392 0.0013934746 -0.039417736 0.030047093
-0.013119064 -0.039608344 0.058473933 -0.029653933 0.0083249025 -0.029087065 -0.034468375 -0.0127609
0.057780404 0.013653357 0.054421727 -0.0038396753 0.05164511 -0.004948538 -0.023330886 -0.037750028
-0.056029543 0.02682713 -0.039048444 -0.038890246 -0.029254634 -0.028117904 0.02252743 -0.03971239
-0.04983215 0.019528355 0.014738057 0.0024573244 -0.0505654 0.025383737 -0.028905384 0.05869971
0.0037410296 0.058908407 0.05714361 0.0026647411 -0.029365191 -0.048087537 -0.009585895 0.05834462
-0.017040625 0.052141983 0.025946055 0.014610413 -0.04207012 -0.04342054 0.025391895 -0.0070933215
0.05174021 0.05592553 0.015520599 0.041721288 0.02716041 -0.048920594 0.03921425 0.019224767
-0.024531055 0.028507438 0.029144388 0.03276659 0.007639732 0.05541296 -0.032400884 -0.0030668303
0.018844683 -0.005448807 0.008520875 -0.024278954 0.058615956 0.021010403 0.056045134 -0.013164148
0.050335582 0.041964334 0.03449231 0.030806493 0.049595606 0.034825955 -0.014063295 0.011024255
-0.007893782 -0.003982261 0.034831796 -0.03219197 -0.029627204 0.028245773 -0.030749604 -0.030089527
0.021838669 0.05163626 -0.019337352 -0.020741574 0.030775715 -0.050692707 0.034435492 -0.0132947825
-0.02567843 0.02261613 -0.03755343 0.049439777 0.04037429 0.024704892 -0.007847518 -0.02176226
0.033276897 -0.003578037 -0.03861622 -0.0072613247 0.03374849 -0.031501234 -0.0024148673 0.017966855
0.006833244 0.04289973 -0.04344085 -0.002939932 0.014550138 -0.027793726 0.025005158 -0.011252873
0.036641683 0.007910255 0.013367947 -0.018885884 0.044230726 -0.015391383 -0.006486997 0.058022518
0.056230742 0.031739067 -0.049582608 -0.035723213 -0.02610441 -0.010192163 -0.047540408 -0.04822783
-0.042289518 -0.028117806 0.010653671 -0.032248028 -0.041632187 0.048724655 0.043534342 0.04858953
-0.002031371 0.013402734 -0.042186376 -0.031761423 0.036403183 0.018293817 0.0012287125 0.038223576
-0.04386659 -0.020263445 0.0129412 -0.033152133 -0.014683954 0.03692426 0.006929908 0.05755205
0.016172599 -0.056707714 0.050673548 -0.025011007 -0.03309705 -0.04209375 0.01810268 -0.035445757
-0.04816638 -0.0023974255 0.03413919 -0.028256407 0.004301276 -0.048375048 -0.015429456 -0.013633136
0.04289596 -0.0042834207 0.05357038 0.054781165 0.008750368 0.048475463 0.04162581 0.01899438
-0.01230029 -0.01019793 -0.03976042 -0.023583882 -0.020011969 0.019693378 0.017501365 0.026182104
00000000: 5e5a b8bc ae12 15bd 2230 efbc 2439 f9bc
00000010: 1eae 30bd 29a6 2e3d 2616 b1bc db16 1f3d
00000020: eb67 673d 4e96 eb3c 5476 423c a4fb 35bc
00000030: ecd8 3d3c f421 20bc 2007 70bb 9a07 39bd
00000040: 366f 32bd a23f cf3c b53d 6f3d b77e 693d
00000050: a05c 89ba 2e8d b43c b5f0 5b3d 151e 3e3d
00000060: 5ccc c5bc 6b57 393d c8e2 c63b 8c61 10bd
00000070: e4da 593c 2e0b 943c 8872 8a3b c088 91ba
00000080: fed0 82bc 344e 49bc 26c1 d93c 1ac8 923c
00000090: b20d cfbc b853 1dbc 9080 57bc abc1 1a3d
000000a0: 9c78 313c 3d03 0d3d e273 6bbd 859b 633d
000000b0: 9c76 1b3c 300d 253b 8167 4c3d 9441 cfbc
000000c0: ce52 afbc c845 fb3b 0c70 1cbc fe71 a53c
000000d0: 6133 6c3d 0cd5 583c dc49 76bc 176f 69bd
000000e0: d4de 4b3c a411 08bc 7d08 453d 3ce7 753c
000000f0: 2f87 40bd 40a5 b63a 7e74 21bd 5225 f63c
00000100: 58f1 56bc 5c3c 22bd 5d82 6f3d ceec f2bc
00000110: 2c65 083c ff47 eebc b62e 0dbd 1813 51bc
00000120: 25ab 6c3d 54b2 5f3c 51e9 5e3d 10a3 7bbb
00000130: d389 533d 5827 a2bb 6a20 bfbc c69f 1abd
00000140: 3c7f 65bd 92c4 db3c 43f1 1fbd 614b 1fbd
00000150: 6aa7 efbc 8557 e6bc 728b b83c 76a9 22bd
00000160: cc1c 4cbd eef9 9f3c e477 713c 100b 213b
00000170: aa1d 4fbd 8ef1 cf3c fcca ecbc 1b6f 703d
00000180: 102c 753b f149 713d 6b0f 6a3d f0a2 2e3b
00000190: 458f f0bc 70f7 44bd 280e 1dbc c5fa 6e3d
000001a0: c898 8bbc d592 553d d28c d43c 8460 6f3c
000001b0: b851 2cbd bcd9 31bd aa02 d03c 186f e8bb
000001c0: 8bed 533d 2b12 653d 1c4a 7e3c f1e3 2a3d
000001d0: 827f de3c f660 48bd 1f9f 203d 427d 9d3c
000001e0: 5af5 c8bc 6e88 e93c 36c0 ee3c 4336 063d
000001f0: b856 fa3b b3f8 623d cab6 04bd e0fc 48bb
00000200: 2a60 9a3c e88b b2bb 249b 0b3c a8e4 c6bc
00000210: 4917 703d 021e ac3c 958f 653d 70ae 57bc
00000220: af2c 4e3d cbe2 2b3d cf47 0d3d e65d fc3c
00000230: c324 4b3d a9a5 0e3d bc69 66bc 149f 343c
00000240: ec54 01bc a07d 82bb c9ab 0e3d badb 03bd
00000250: c0b4 f2bc ae63 e73c 98e6 fbbc 507e f6bc
00000260: 02e7 b23c 8b80 533d 5e69 9ebc 3cea a9bc
00000270: 5a1d fc3c 28a3 4fbd 3b0c 0d3d 5cd2 59bc
00000280: 925b d2bc 7645 b93c a0d1 19bd 5d81 4a3d
00000290: 835f 253d ea61 ca3c e092 00bc c446 b2bc
000002a0: 5b4d 083d 807d 6abb 0b2c 1ebd 68f0 edbb
000002b0: db3b 0a3d 7007 01bd c042 1ebb 3a2f 933c
000002c0: 68e9 df3b a1b7 2f3d 08ef 31bd e0ab 40bb
000002d0: b463 6e3c abaf e3bc 9ed7 cc3c f85d 38bc
000002e0: 9715 163d 049a 013c 3c05 5b3c 92b6 9abc
000002f0: 472b 353d 242c 7cbc e090 d4bb 05a9 6d3d
00000300: 3552 663d d300 023d 2217 4bbd 8152 12bd
00000310: ead8 d5bc 08fd 26bc bbb9 42bd 8c8a 45bd
00000320: c637 2dbd 5057 e6bc bc8c 2e3c 8216 04bd
00000330: 8386 2abd 8193 473d 1151 323d d105 473d
00000340: c020 05bb 2497 5b3c 9fcb 2cbd 4418 02bd
00000350: 811b 153d eadc 953c c00c a13a 5390 1c3d
00000360: 74ad 33bd 86ff a5bc 5407 543c 88ca 07bd
00000370: f894 70bc e53d 173d 4814 e33b b3bb 6b3d
00000380: 667c 843c 5946 68bd 118f 4f3d e2e3 ccbc
00000390: c690 07bd 7f6a 2cbd 124c 943c 922f 11bd
000003a0: 1c4a 45bd 201e 1dbb 89d5 0b3d fb79 e7bc
000003b0: b8f1 8c3b ea24 46bd d4cb 7cbc 845d 5fbc
000003c0: adb3 2f3d f05b 8cbb 9d6c 5b3d 3762 603d
000003d0: b45d 0f3c 358e 463d d37f 2a3d 1a9a 9b3c
000003e0: 2887 49bc 3815 27bc d2db 22bd fc32 c1bc
000003f0: 24f0 a3bc 0254 a13c 065f 8f3c da7b d63c

conv_layers.2.bias f4 [64]
0.013265435 0.0035775043 0.02574252 0.048146565 0.024827618 -0.02553922 -0.02628795 -0.024964254
0.053672824 0.04733697 0.017555092 0.024459098 -0.0042162314 -0.03584101 -0.0272142 -0.013516776
0.041625332 -0.0009205155 -0.0089464635 0.025527786 0.056106683 -0.041934796 -0.04651872 0.012589578
0.01721837 -0.05110196 0.045343067 -0.029579636 0.043671977 0.04164995 -0.030248392 0.0057251416
-0.032746807 -0.03594046 0.024501 -0.03905873 -0.045474757 -0.029076802 0.05824286 -0.04437262
0.02588268 -0.013610743 0.049574915 -0.056593236 -0.015729852 -0.0042498223 -0.043806285 -0.012770545
-0.042546585 -0.057638943 -0.026407022 0.058801446 0.05638474 0.05648483 -0.01166318 -0.026770864
-0.022701979 0.022092324 -0.02220305 0.046339873 -0.037079416 -0.056382917 0.019955833 0.025984962
00000000: 4457 593c 9074 6a3b fae1 d23c 5535 453d
00000010: 4a63 cb3c a037 d1bc d459 d7bc d681 ccbc
00000020: 09d8 5b3d 69e4 413d b2cf 8f3c 725e c83c
00000030: 5028 8abb 06ce 12bd 50f0 debc 7875 5dbc
00000040: 537f 2a3d c04e 71ba 3094 12bc a61f d13c
00000050: 1fd0 653d d2c3 2bbd 6a8a 3ebd 8444 4e3c
00000060: 8a0d 8d3c 4a50 51bd a7b9 393d fe50 f2bc
00000070: 63e1 323d 2399 2a3d 7acb f7bc f899 bb3b
00000080: 8421 06bd 4e36 13bd 52b6 c83c 0cfc 1fbd
00000090: bd43 3abd 7932 eebc 1190 6e3d 10c0 35bd
000000a0: ea07 d43c 98ff 5ebc 110f 4b3d 4fce 67bd
000000b0: e4db 80bc 1842 8bbb 386e 33bd 8c3b 51bc
000000c0: 5445 2ebd d016 6cbd 8a53 d8bc c9d9 703d
000000d0: aff3 663d a35c 673d ec16 3fbc 924e dbbc
000000e0: 80f9 b9bc f6fa b43c 2ce3 b5bc e1ce 3d3d
000000f0: 96e0 17bd c6f1 66bd 6a7a a33c 6ade d43c
